policy2txt/checkpoints/policy_1.pt (torch, 740373 bytes, 8 tensors)

weight f4 [512, 33]
00000000: f052 75bd d4cc 3cbe 4c57 03be 78a8 b1bc
00000010: 33a7 2f3d 3f47 6b3e 3275 363d 457e 52bd
00000020: 3036 61be 1fc6 d2be cd23 d33c 9c33 193d
00000030: 8d19 98bd 78ee cfbd ec87 1f3d 6375 a03e
00000040: baca 853d 7d4d 523e 511b 693e 319b 8b3e
00000050: 60a5 3ebe 6c75 833e 3755 173d ddc4 d8bd
00000060: 8cb6 4d3d fef0 97bc d19b 06be bd61 25bd
00000070: 1d67 a3bb c11c d93d 1b01 e2bd b45d 063c
00000080: 0a1b 633d e179 39be 6fef 5ebe 37c5 8f3e
00000090: b6a2 97bc 36c6 fa3d 92af 38bd 0c37 d3bc
000000a0: 6d51 98bc 4f8b 193e a53e 12be 7654 6a3d
000000b0: 2ed8 7b3b e4a4 7b3e 18e4 9fbd ea5b ebbe
000000c0: 122c b7be 3ff4 97bd 71d6 44bc 15da a13e
000000d0: 5250 45bd 9e9c 4e3e a155 88bc fa3e 983c
000000e0: 51da 58bd 625f 13be 071c 243e 1feb dd3c
000000f0: f11b c73d cba9 5bbc 558f 513c 0a72 003d
00000100: 1d7e 98bd ba41 df3c bae1 69bb 75c5 46be
00000110: 09fe b13d 962c 7b3c 7187 403c 7cd1 013e
00000120: abdd 313e 4497 8bbb 935e c3bd 4d17 063e
00000130: 51a6 a4be 01ab 883c e2c8 c13d 19af fcbd
00000140: bcf8 49bd eafc a43c 1b65 bcbe 6ac0 d73c
00000150: 9d20 863e 8d84 5d3e f130 0d3d 14e6 8b3e
00000160: 20bb 57be aae2 c5bd d794 463d 841c 8c3e
00000170: 96f3 893c cd78 e13d d384 cb3d 10f5 153e
00000180: 097e cabd 21d9 c9bd f8fd a13d 236c 633d
00000190: a3ef 873e 45f5 70be 4716 03be 876e 3cbd
000001a0: 1411 11be b230 c33c 4147 97be f989 623e
000001b0: a864 91bf ce29 abbe fa23 0b3d 95ec 3fbc
000001c0: 8633 f23c bf5f 043e 93a8 ce3d 9a27 9ebd
000001d0: eced 2dbe 52a4 4b3c 2c6f f1bd 49a7 393d
000001e0: c356 7c3e 8422 7ebd 1fee d6bd e0f0 5fbe
000001f0: e66d 66be 8d83 c43b b129 d63d bea3 23bd
00000200: 4b95 b43d 103d b63d 9a1b b8bd c786 643d
00000210: 7f12 5cbd dc90 633d 5975 d9bd 94c1 65bd
00000220: c4a7 15be 5845 853d 19e4 f33b e301 013e
00000230: 03be fb3c 1ba2 123f 092d 8fbe 9f82 9e3d
00000240: c6bb 373e 9e08 cb3d b97e b83e bc64 113e
00000250: 7325 cb3d 92d6 52be 7a52 e5bd 1e8b 4bbe
00000260: c691 123e c86b 0bbe 2484 ecba 679a 0d3d
00000270: 1207 c23d c5ab 3bbe da5a a8bd 0394 7d3b
00000280: 49f5 573d 8c75 9a3c 4422 7bbd 6067 cbbc
00000290: 948e a63d f901 1b3e 73e5 9abd ec5c 47be
000002a0: c255 a93e 565b c9bd 29f3 e7bd 664a 013e
000002b0: 7b6d 093e 8abd 583e fe2a 013f 76f8 703e
000002c0: d91a df3c cf6e 23be 4576 193e 8743 61be
000002d0: 3794 1f3e 951f 363e da05 0cbd 00a9 0e3e
000002e0: 5528 843e 8a10 5a3c b1ba f23b 60ed 8a3c
000002f0: 4f81 0b3d b259 103e 0382 553d 8705 db3d
00000300: 606e d83d 9dae 74bd 52f0 b33c 35b2 013c
00000310: 5839 92bc 443c 423d e67c 9a3d b29e 0e3e
00000320: a3d5 55be 40ea 633e d215 9c3d 95f5 01be
00000330: 3133 373e 7763 b63d 61aa b8bc 7df7 ec3e
00000340: 7201 75be 78c0 da3d 3a2a 2fbe 69bf 443e
00000350: 04c1 ddbd a6b8 c03c 2e88 503e 76aa 513e
00000360: af42 93bc 3d27 5b3e 1783 6fbb 782d 98bd
00000370: 30b7 34bd e0a1 fdbd 4d19 85bd 4f7f 82be
00000380: 5a77 95bd 2cc6 ac3d 8a75 bdbd 269c 163e
00000390: 6dd4 073b 19b9 29be c303 a1bd 1470 593e
000003a0: 0b1e bfbd c360 173e f1be fabd 520c ba3d
000003b0: 97bd eabc 1aa6 1b3b 6fa9 8cbe fef2 83be
000003c0: 2190 fbbe 8b59 f1be 1843 873d 9baf 593d
000003d0: 8739 babd d184 653e f4fd d63d 933d ae3d
000003e0: 0e40 16bd 3d9e 083e e042 51be 3592 0b3e
000003f0: ff91 53bc e66f 2dbe e1f4 92bd a04a 2ebe
-0.05989355 -0.1843751 -0.1282627 -0.021686777 0.042884063 0.22976397 0.04454536 -0.05138995
-0.21993327 -0.4116678 0.025773907 0.037402734 -0.074267484 -0.10152906 0.038947985 0.3133956
0.06532808 0.20537372 0.22764327 0.2726684 -0.18617773 0.25675523 0.0369465 -0.10584424
0.05022292 -0.018547531 -0.13145377 -0.040376414 -0.0049866573 0.106011875 -0.11035367 0.0082010515
0.05544571 -0.181129 -0.21771024 0.2808015 -0.018510204 0.12244837 -0.045089312 -0.025783084
-0.018593514 0.14994548 -0.1428171 0.057209454 0.0038428414 0.2457462 -0.07807177 -0.45968562
-0.3577581 -0.07419633 -0.012014017 0.31611696 -0.048172303 0.20176932 -0.016642394 0.018584717
-0.052942578 -0.14391854 0.16026317 0.027089654 0.09722126 -0.013407181 0.012790521 0.031358756
-0.07445929 0.02725302 -0.0035687522 -0.19411261 0.086910315 0.015330454 0.011751042 0.12677568
0.17369716 -0.0042599756 -0.09539523 0.13094826 -0.3215814 0.016683104 0.094621435 -0.12338085
-0.049309477 0.02014013 -0.36795887 0.026336867 0.26196757 0.21632595 0.034470502 0.27323973
-0.21067476 -0.09662373 0.04848179 0.27365506 0.016839784 0.11009369 0.099374436 0.14644265
-0.098873205 -0.09855867 0.07909769 0.05552305 0.26550016 -0.23531063 -0.12801467 -0.046003845
-0.14166671 0.02382693 -0.2954655 0.22122945 -1.1358843 -0.33430332 0.033969857 -0.01171412
0.029565584 0.12927149 0.10090747 -0.07722397 -0.16985291 0.012429314 -0.117887825 0.04532555
0.24642472 -0.062044635 -0.10494637 -0.2186923 -0.2250286 0.0059971274 0.10457171 -0.03995108
0.08817538 0.088983655 -0.089896396 0.055792596 -0.053728577 0.05555807 -0.106180854 -0.056092814
-0.14614779 0.06507367 0.007442963 0.12598376 0.030730253 0.57278603 -0.27964047 0.07739758
0.17942724 0.09913753 0.36034182 0.14198583 0.09919252 -0.20589665 -0.11197372 -0.19877288
0.1431342 -0.13615334 -0.0018044752 0.034571078 0.09474005 -0.18327244 -0.082204536 0.0038692958
0.052724157 0.018854879 -0.061311975 -0.024829566 0.08132663 0.15137471 -0.07563295 -0.1946904
0.3307324 -0.09831874 -0.11325676 0.12626037 0.1342067 0.21166053 0.50456226 0.2353228
0.027234482 -0.15960239 0.14986522 -0.21998416 0.15583883 0.17785485 -0.034185268 0.13931656
0.2581202 0.013309607 0.0074075093 0.016958892 0.034058865 0.14096716 0.052125942 0.10694414
0.10567927 -0.059736837 0.02196518 0.007916023 -0.01784961 0.047420755 0.07543354 0.13927725
-0.20882277 0.22257328 0.076213494 -0.12691338 0.17890622 0.0890569 -0.02254218 0.4628257
-0.23926333 0.10681242 -0.17105952 0.19213642 -0.108278304 0.023525547 0.20364448 0.20475182
-0.017976133 0.21401687 -0.0036546641 -0.074305475 -0.044120014 -0.12384391 -0.06498966 -0.25487754
-0.07298155 0.08436236 -0.092509344 0.14708003 0.002072598 -0.16574515 -0.078620456 0.2123416
-0.09331902 0.14783005 -0.122434504 0.09084381 -0.028654857 0.0023750127 -0.27473018 -0.25771326
-0.491334 -0.47138628 0.06604594 0.053145986 -0.09093004 0.22413947 0.104976565 0.08507838
-0.03668218 0.13341613 -0.20435667 0.13629992 -0.012913226 -0.16937217 -0.07175613 -0.17020655

bias f4 [512]
00000000: 173b f0bd 01f1 353e 3c6f 0a3e b9bc bbbd
00000010: 3ad8 33bd b3e8 c1bd 293d e0bd def6 0a3d
00000020: 0f4d d93d 9dc4 ed3d 51e8 28bd d0a2 a2bd
00000030: 7d04 f43c 8065 08be bd39 b9bd 3bc3 bc3d
00000040: 498d 453d 2bc0 1abe 4e06 12be 72c6 0d3e
00000050: ca41 3cbd 5b75 a23d d049 3b3d fdc3 23be
00000060: ee6e a53d e6c5 1abd 8c2f 263d d0a8 003e
00000070: eed2 913c b496 bebc f4c8 febd 19ad 7b3a
00000080: f116 4fbe 0cf6 30be a118 98bd 5876 cabc
00000090: 06d6 05be 4f36 193e 8ba2 59bd b46f 993d
000000a0: 0bd1 413e e7a6 1fbc 8eb7 c43c 2246 653c
000000b0: fc27 173e 2bbc 05be ffcf b5bc 7963 b3bd
000000c0: daa3 77bd 0fbf 94bd c32b 04be 3eaf 263e
000000d0: bb58 d03d 3027 d93d 9a34 ae3d 07cc 973a
000000e0: 4455 333d c6b1 14be 5b28 fcbc 8ee8 54bd
000000f0: f59d 283e 6210 3fbd 7549 5ebd 2997 c0bd
00000100: c67f 9e3d 5579 04bd 1d01 1c3e fe74 a73c
00000110: ce5b 633d be80 b03d 0d86 85bd 5513 49be
00000120: c574 d2bb f808 c5bd a625 6e3d 1ffa e63c
00000130: aaff 0ebe 5cda 84bd 7ce4 b13d 7358 31be
00000140: 9d22 c23d 1b16 d7bd 6ddf 1d3e 194b 143e
00000150: b0b4 3b3c 987d 173e 2bc9 a6bc 20a6 86bd
00000160: 2bad 34bb fd59 613d cc55 d93d a997 043e
00000170: c055 723d a063 9d3d 189a 8dbd 0449 983d
00000180: d90c 973c 1974 2bbe 0d8b 52ba c8ea d63c
00000190: 077e 1c3d c908 c9bc 5ddc fc3d d3cb a03d
000001a0: 784c 703d c568 7b3d e547 243e edf9 ab3d
000001b0: 0eed 1ebc a091 c53c 9f5e 3dbd 9731 cbbd
000001c0: 8ea9 2cbe 390a 133e c077 143e 99b5 1b3c
000001d0: 17f1 2a3e 1839 dabd b580 0fbe 0441 fb3d
000001e0: 9330 21bd 0be5 4bbd 5395 cebd a30e aabd
000001f0: 9551 073e 9ba0 2fbd fb83 b4bd 05e5 a33d
00000200: 6d74 74bd d5f3 d3bd f787 033e 2661 f3bd
00000210: 3e58 e7bd 5024 aa3d af58 0d3e fd4e 88bc
00000220: 4811 d3bd 05c8 153e b88b ba3d bf6d 23be
00000230: 5da8 37be d500 a03d 2604 10bc 7782 36be
00000240: bfa0 a9bd f3a2 d83d 4bdf 123d b9f0 2abd
00000250: f162 ab3d f880 f83c 17a7 f0bd 74f3 07be
00000260: 0b5f 083e 7cd5 8ebd ae7b e7bd 6e70 45bd
00000270: 1cee 95bd 2549 20be bf84 0abe 79c8 3d3e
00000280: a856 9bbd 5afd c0bb 2b62 01bd 3d82 e83d
00000290: 8d06 903d 9e6c 96bd 0903 5c3d 99fb fc3b
000002a0: 6912 cabc eae9 cb3c 6370 3a3c 5509 0d3e
000002b0: 9853 bfbd 03cf cdbd 0cec 42bd 9766 183d
000002c0: 12e7 19be cfc2 84bc 682b bcbb 0c2c cfbd
000002d0: 2ea3 51bd df25 d53d 724c 1d3e fc1b 103e
000002e0: 5067 90bd b93c 2fbd bf1b 83bd 1044 6cbc
000002f0: 5900 1fbd 8090 86bd 4a6c 0abe 88c0 273d
00000300: d45a c0bc b3af 7dbd 9ad8 0abe d461 b33d
00000310: 4788 393e 63fb b3bd b50f 85bc 782b bd3d
00000320: b410 8f3d 6258 d03c 8aa1 3dbe 9b43 0d3e
00000330: c724 1abe 5868 a9bb 6ba2 d53c d78b 883a
00000340: d4d1 223c 3bb2 d6bd c20d 333e 4878 f7bc
00000350: c3f3 ae3d a83f 9ebd b457 bc3d e747 a9bc
00000360: 7301 93bd 0529 3f3d 5d09 243d cffa 48bd
00000370: 6f3f 28bd 718e 2bbe 274d 343d 8a4c 58bc
00000380: efe2 d53d f210 243e 0955 05be 3c70 77bd
00000390: d87f d43d 053d c0bd 7659 f0bd 1c2d 25be
000003a0: ad45 943c 14c6 643d 80d6 56bb 99cd be3d
000003b0: 9203 2cbc 354a 253d 52c2 c43d 48d3 b23d
000003c0: f43a dbbd 549d 5c3c 6680 fbb9 18ed 8abd
000003d0: 1e09 a63b 2cac 8e3d ac8b 28bc e3f7 13be
000003e0: 4e47 58bd 9c1a cbbc e3ac e33d f42d 3ebd
000003f0: 6490 713d 76e2 583c 8f77 083d 6255 e8bd
-0.117300205 0.17767717 0.13518995 -0.09166855 -0.04390738 -0.09468212 -0.109491654 0.033926837
0.10610401 0.11609767 -0.04123718 -0.0794121 0.029787296 -0.13319969 -0.09044216 0.09216925
0.048230443 -0.15112369 -0.14260218 0.13845232 -0.04596118 0.0793254 0.04572469 -0.15992732
0.08077799 -0.037786387 0.040572688 0.12564397 0.017800774 -0.02326522 -0.124406725 0.00096006837
-0.20223595 -0.1728136 -0.074265726 -0.024714634 -0.13069925 0.14962123 -0.05313353 0.07492009
0.189274 -0.009744382 0.024013307 0.013993772 0.14761347 -0.13060062 -0.022193907 -0.08759207
-0.060458995 -0.07263004 -0.12907319 0.16277787 0.10173174 0.106031775 0.08506127 0.0011581191
0.043782488 -0.1452094 -0.030780962 -0.051979594 0.16466506 -0.046646483 -0.054269273 -0.094038315
0.077392146 -0.032342274 0.152348 0.020441528 0.055507474 0.086183056 -0.06519709 -0.19636281
-0.0064226114 -0.09620851 0.058141373 0.028195439 -0.13964716 -0.06486961 0.08686158 -0.17318897
0.09479258 -0.10502263 0.15417261 0.14481772 0.0114566535 0.14794004 -0.020359596 -0.065746546
-0.0027569036 0.05501746 0.106120676 0.12948479 0.05916381 0.076850176 -0.06914157 0.074358016
0.018438743 -0.16743506 -0.00080315844 0.026235 0.038206127 -0.024540322 0.123467185 0.078513764
0.058666676 0.061379213 0.1604305 0.08397279 -0.009700073 0.024117291 -0.046232816 -0.09921568
-0.16861555 0.14359368 0.14498806 0.0095037455 0.16693531 -0.10655421 -0.14013942 0.1226826
-0.039352965 -0.04977898 -0.10087075 -0.08303573 0.13214715 -0.042877775 -0.08814236 0.080026664
-0.059681345 -0.10349242 0.12844835 -0.11883764 -0.11296128 0.08307707 0.13803361 -0.016639227
-0.103060305 0.14627083 0.091086805 -0.15959834 -0.17935319 0.07812659 -0.008790052 -0.17823206
-0.08282613 0.10577955 0.03585748 -0.041733477 0.08368481 0.030334935 -0.1175062 -0.13276464
0.13317506 -0.06974313 -0.11302887 -0.048202924 -0.073208064 -0.15652902 -0.13527201 0.18533505
-0.07584888 -0.005889577 -0.03158776 0.11352966 0.070324995 -0.07344936 0.053713832 0.0077204225
-0.024666982 0.024891812 0.011379334 0.13773091 -0.09342116 -0.1004925 -0.047588393 0.037207212
-0.15029553 -0.016206173 -0.005742479 -0.10115823 -0.05118101 0.10407614 0.15361193 0.14073175
-0.07050955 -0.04278252 -0.064017765 -0.014420524 -0.03881869 -0.0657053 -0.13517871 0.040955096
-0.02348081 -0.061935138 -0.1355919 0.087588936 0.18118392 -0.087881826 -0.016242841 0.09236807
0.06985608 0.02543277 -0.18518654 0.1379532 -0.15053092 -0.0051699094 0.026078423 0.0010417652
0.009937722 -0.104832135 0.17485717 -0.030208722 0.085425876 -0.07726985 0.091964155 -0.020664169
-0.07178011 0.04666998 0.040047992 -0.049067315 -0.04107612 -0.16753556 0.04401889 -0.013201842
0.10443675 0.16022089 -0.1302072 -0.06040977 0.10375947 -0.093866386 -0.11735813 -0.16130489
0.01809963 0.055852965 -0.003278166 0.093165584 -0.010498898 0.040353972 0.09607376 0.08731705
-0.10704604 0.013465244 -0.00047970115 -0.06783503 0.005067005 0.06966433 -0.010287207 -0.1445003
-0.052802376 -0.024792962 0.1111696 -0.046430543 0.058975592 0.013237586 0.033317145 -0.113444105

weight f4 [256, 512]
00000000: a076 4bbd 405d fd3d 6980 d5bd 6184 1ebe
00000010: fe8c d53c 3c0f 2d3c e55d 193d 9deb 51bd
00000020: ca57 d1ba 8c11 ce3c 387f 893d 1915 593d
00000030: 12d2 003d 0bfb f63d ce0e f5bd 7944 d23c
00000040: d1cd 5ebd d913 413e 8fc0 e63d b056 b7bd
00000050: 6954 adbd 1138 c2bd 8b9c 43ba 13cb 2dbb
00000060: b13a 85bc 8753 0cba e24c 653d 698a bcbd
00000070: ea73 853d e87b 5b3d 8bfe 02be d635 593c
00000080: 007e e63c 81c2 5ebd c435 3ebd 90ee 003e
00000090: 209d 2abd 1261 733c 95c5 3c3d 4eaf 31be
000000a0: f1bf 75bc 0882 53bd 2c2f 07be 4ee9 ae3d
000000b0: 3c4b 7f3d 791d b33d 3bf0 a13d b780 afbc
000000c0: a7a1 e03d 9cf4 faba ebb8 ac3d dbd1 45be
000000d0: 9658 293d 1156 22be 448b a3bd 20a6 8f3d
000000e0: a7ff d23b 1f34 1c3c 9b6e 2e3d 49d3 93bd
000000f0: eedd 54bc d1b4 943d 85f4 f5bd 0c5b 87bc
00000100: 1839 153c f2f0 e7bd 308d cbbd 3964 4abd
00000110: 43d7 58bd f616 083d d06e 7f3c cfe5 b63c
00000120: 1ef2 09be e774 073e f1c0 b5bc ebee 87bd
00000130: 29a4 e23c fad2 013e 5437 b43d 3a29 8d3c
00000140: 08e0 133d 3f84 773c bb15 e43b 05c3 533d
00000150: 4ce5 c03a d9e6 4ebe 7cf8 4abc 963a e2bb
00000160: b9d9 03be 849e 063e 437e 003e e4e4 d7bc
00000170: e574 c23d 20d3 f7bd 70a1 72bd d495 b73c
00000180: a447 06bc 0dce 5e3c 8d4e 4abd add2 84bd
00000190: 3506 cb3d bf1b 003e 2e82 98bc da7d 63be
000001a0: 5097 a9bd fcd4 2ebd a80f b6bd 1093 7b3c
000001b0: 1912 533d 3013 853c a49f 9ebd e6f5 de3d
000001c0: 7809 a1bb ed92 003e 7db8 e13c e278 cc3d
000001d0: dc62 8c3c bbbf 083d d892 f73d 4531 c83d
000001e0: 204f c5bd 62a3 b03d b648 ca3d 6292 54be
000001f0: d6d7 89bd 23d2 f03d 5bc7 423d cbce b03d
00000200: 7494 6c3d 1b1e 80bc 06fe 8dbd 2883 a43d
00000210: 415e b63d 9ae7 b3bd db72 22be 524e 3e3d
00000220: d169 c6bd 1806 c0bd a3ff 933d 3921 0a3d
00000230: 847b 2e3e 7b6a 13bd a963 503e fce3 343e
00000240: 8960 33bd 67ae bdbd b8f8 613d 3467 32ba
00000250: 2a39 f8bd 1c1c c1bd d1f2 23bd 9116 39bd
00000260: 1fea fd3d a353 b13c 5ddb dbbd edc1 9abc
00000270: d08e ee3d 19ab fd3d 9019 ce3d de8b fbbd
00000280: 52fd 2e3e 8f76 1bbe 58fd 203e ec13 0bbe
00000290: 778b dfbd 67b0 8abc 684b 27be 89c6 adbc
000002a0: 03d6 0c3b daee 6ebd 18b0 ed3d 4e7a 8e3c
000002b0: 1812 023e 048a 57bd 964e b7bc 553e e73c
000002c0: eef6 253c a514 ca3c df23 bbbb 8753 2dbe
000002d0: 4ba6 1f3b 537c 72bd 75ef eebd d0de f33c
000002e0: 45ad a4bd 7843 133d 57a1 6ebd 4955 d0bd
000002f0: 1139 b4bd 251c 9b3d 84e2 773d d539 31be
00000300: 5f72 8bbd d302 553d d610 d23d 331d 4039
00000310: 22e8 80be 8671 82bd a18d 373d a9a4 8b3d
00000320: 90ee ae3c ba3b b33c eb0f 9d3d 1820 ab3d
00000330: 6fab cabd 9412 033e ad7c 69bd ee66 72bd
00000340: 03d1 31bc 70c3 06bd 30b7 cabd 0f09 853b
00000350: 38d0 f23c fd0b 10bd d63e dc3c cc43 b1bd
00000360: 253c ca3c 6d5c 12bc 6d31 903d 2641 0bbc
00000370: 3cc7 583d 269e 013e 079e 6cbd 64da 243c
00000380: b6be b2bd d86d b43d 89b4 093d 144e 63bd
00000390: 24c9 43be 5315 1c3e 6993 103d 7b15 ad3d
000003a0: e141 13bc 2ea3 70bd f4ba 923c 3da7 b3bd
000003b0: c306 3cbb 5f7b 4f3d 59f7 bcbd 6e89 993d
000003c0: e259 1b3d 797b 9b3d 9377 d13c cea5 fbbb
000003d0: b4a0 263c 9cd9 21bd 1830 f4bd 8691 bfbd
000003e0: 338d c6bc 9eef 563e 47ce 3b3d 2a7a 27bd
000003f0: 4caa d3bd 75b3 32bd d669 98bd 478e 68be
-0.049673676 0.12371302 -0.10424883 -0.15480186 0.026068207 0.010562714 0.03744306 -0.05125009
-0.0015971598 0.025154851 0.06713718 0.052998636 0.03145034 0.120596014 -0.119657144 0.025667416
-0.0543955 0.18855228 0.112671964 -0.08952081 -0.084633656 -0.0948335 -0.00074619864 -0.0026518747
-0.016263338 -0.0005353023 0.055981524 -0.09206087 0.065162495 0.053584963 -0.12792413 0.013257464
0.028136253 -0.054384712 -0.046437994 0.12591004 -0.041653752 0.014854686 0.046086866 -0.1735203
-0.014999376 -0.05163768 -0.13201588 0.08540593 0.06232761 0.08745856 0.079071485 -0.02142368
0.10968333 -0.0019146386 0.08433708 -0.19318335 0.041344248 -0.15853144 -0.07985547 0.07014108
0.0064391675 0.009533911 0.04258595 -0.07218034 -0.012992365 0.072610505 -0.12009529 -0.016522907
0.0091078505 -0.113252535 -0.09939039 -0.049411986 -0.052939665 0.033225022 0.015590385 0.022326378
-0.13471267 0.13228188 -0.022186728 -0.06637367 0.027666168 0.12678137 0.087996155 0.017231572
0.036102325 0.0151072135 0.0069605983 0.051699657 0.0014716773 -0.20205249 -0.012388345 -0.0069039566
-0.12876023 0.13146406 0.12548165 -0.02635426 0.09494952 -0.12100816 -0.05923599 0.02241031
-0.008195791 0.013598931 -0.049391318 -0.06485496 0.09913293 0.12510584 -0.018616762 -0.22215977
-0.08280814 -0.042683586 -0.08889705 0.015354887 0.05153093 0.0162445 -0.07745293 0.10886745
-0.004914459 0.12556048 0.027553791 0.09983994 0.017136984 0.033385973 0.12088555 0.097750224
-0.096342325 0.08624913 0.0987715 -0.20758966 -0.067306206 0.117588304 0.0475534 0.08633193
0.057758763 -0.015639355 -0.06933217 0.080328286 0.08904696 -0.08784409 -0.15864126 0.04646141
-0.09688152 -0.09376162 0.07226493 0.03372309 0.17039305 -0.03599022 0.20350517 0.17665094
-0.043793235 -0.0926178 0.055168837 -0.00068055396 -0.12120278 -0.094291896 -0.04002649 -0.045187537
0.12398171 0.021646326 -0.107351996 -0.0188913 0.11648333 0.1238615 0.100634694 -0.12282537
0.17088822 -0.15181945 0.15721643 -0.13581818 -0.10915273 -0.016929818 -0.16337359 -0.021212833
0.0021489866 -0.058333255 0.11605853 0.017392304 0.12702215 -0.052621856 -0.02237634 0.028227964
0.010129673 0.024668047 -0.0057110633 -0.16926394 0.0024360593 -0.059200596 -0.116667666 0.029769331
-0.08040861 0.035953015 -0.058259334 -0.10172517 -0.08799947 0.075737275 0.060518757 -0.17307217
-0.06808924 0.052004647 0.102571175 0.00018321424 -0.25177103 -0.06369309 0.044812802 0.06818516
0.02135399 0.021879066 0.07669052 0.08355731 -0.098959796 0.12800056 -0.057003666 -0.059180193
-0.010853055 -0.032901227 -0.098982215 0.0040599178 0.029640302 -0.035167683 0.026885431 -0.08655509
0.024686882 -0.008933169 0.07040677 -0.008499419 0.05292438 0.12657985 -0.057767894 0.010061834
-0.087277815 0.088100135 0.033619437 -0.055494383 -0.19119698 0.1524251 0.03529683 0.08451363
-0.008987875 -0.05874937 0.017911412 -0.087721325 -0.0028690554 0.050654765 -0.09226865 0.07496916
0.037927516 0.0759191 0.025569713 -0.0076796776 0.010170151 -0.03951417 -0.11923236 -0.09353928
-0.02423725 0.20989844 0.04585102 -0.04088799 -0.10335216 -0.043628175 -0.074420616 -0.22710524

bias f4 [256]
00000000: 1f67 babd 89fb c0bc b812 dd3c 3cc4 02bd
00000010: eb46 9c3c c26b 09bc 4f24 8dbd ab99 98bb
00000020: 5763 8fbb d68f 863b e78c 7cbc cc97 70bd
00000030: 7f6a 3f3d 5fed c83b 85cb e2ba e723 2f3c
00000040: 43af 5dbc 527d b3bd 94ac c4bc 05e3 5cbd
00000050: f4f2 92bd 5c27 06bb be7a 9abc 2623 da3c
00000060: d9fe 04bc ac2f f1bc ba29 afbc 1d61 a0bd
00000070: 6c6d 5ebd 199d 04bb bb13 c63c eb95 d7bb
00000080: 645f 15bd ae28 3dbd 74fb 06bd 0111 023c
00000090: 9410 5dbd 7697 1fbd 8a20 a0bd a1be 34bc
000000a0: 17ab 4bbd 9ba9 8dbc 1e48 a23c ab8b a9bc
000000b0: 7559 aabd a381 043d d9f6 943b 5a55 b8bd
000000c0: 6a7b cebb 98bc 2bbd be3e 28bd c3ef 9ebd
000000d0: 86b5 98bc bee4 663c 40ca 49bd f121 98bd
000000e0: 08e9 12bd c9c3 1d3d 7685 043c de4a 0ebd
000000f0: 4371 eebc e16e 5fbd fd07 00ba d131 4b39
00000100: 64a0 7dbc 67fb e5bd abea 06be 4632 e63c
00000110: 0a47 54bd 3b9e a63c b0d7 febc 9cad 72bd
00000120: 600c 42bd c81c 83bd f98e 43bd b08e 2abd
00000130: 026e 7abd 0ce6 963c 34e4 f0bc 2b59 a7bc
00000140: 3141 2abd 0cd5 4cbc 94c1 afba 3500 01bd
00000150: 0d35 ba3c dd03 e53c f48f ef3c b750 8e3c
00000160: 842b 10bd ef40 bcbd 011a 20bc e493 c9bd
00000170: 1cca ca3c dd30 c83c a9fb 8ebd bfa6 2c3b
00000180: 696f d0bd 0efb 4dbd 0d9e 243b 5a2a 4dbc
00000190: 2b9d 2e3c 1553 ff3c b99d 14bd 65ed 643c
000001a0: 3e0a 0fbd 5b08 5bbd 649d acbd 3fcc f63c
000001b0: 73f2 19bd 5f04 54bd a985 863c 1191 21bc
000001c0: 8847 16bc b638 4b3c 3978 aa3c d0fd 103c
000001d0: b9e5 11ba bd78 e7bc 436e 853c 182e 143c
000001e0: d355 293b 062e 2fbd 39dc 9cbc 1765 82bd
000001f0: 8009 dfbb 37de a5bd bffe 163d fbd7 2b3c
00000200: 02c7 a4bd 6640 85bd 480c edbc e851 9e3c
00000210: 9a27 1abb 3c16 403c 745b 75bd b025 38bd
00000220: 82b3 b53b f73c 32bd 0aed 5b3c 17ba 0c3d
00000230: d5d4 bbbc 9ff9 9a3b 6de2 bdbd 937a 1bbb
00000240: 0882 873d 88e0 c83c eabd ce3c 123c 38bd
00000250: 8c12 28bd d3ce f1bc fccb 18bd f4c7 5d3c
00000260: b59f 95bd 9569 6cbc 5301 6cbd 9bee 55bc
00000270: c0bf 823c 17d4 a8bd 1a6c 6ebd bafa 9dbd
00000280: 4747 62bd 1a58 9e3c 914a ae3c 4def c7bc
00000290: bd05 30bd 162d c2bc 761a 953c 27d5 59bd
000002a0: 5a5c 49bd ed67 d3bc 18b9 cabc 87e1 a5bd
000002b0: dd44 33bd 62f7 66bd 78fe 82bd edd1 f53c
000002c0: 8c56 953a 3781 923c f70e 55bd ec11 49bc
000002d0: 423d d5bc 3461 0abd 357e 7abd 28d4 83bd
000002e0: 67e4 81bd 6265 bbbd 2afe 743b 4382 a1ba
000002f0: e1d7 35bb 8a7e 5fbd dedf 8a3b 571f 37bc
00000300: ac0a 49bc 012e 9d3c 38f7 ad3c ee13 1a3c
00000310: 12fd 19bd b5b1 6abc 5da3 76bc f1a1 003d
00000320: 9877 5fbb 204d 7cbd fa64 94bd 06fa 30bd
00000330: 36b7 113c a9a7 74bd 9639 32bd f15c 2ebd
00000340: b1c1 4fbd 4fa3 f93c e25c dbbb bd65 c6bc
00000350: 689d 64bd fa48 4a3b a70d 593d e4e1 1dbd
00000360: fc91 97bd 095d 41bd fa40 98bc 3183 36bd
00000370: ed81 cc3b 12d9 febc d02d 153d 6a2f 9bbd
00000380: 8c30 36bd 7317 913c 814c 113d 0924 983c
00000390: b8b0 9c3c 26e5 2e3c a450 32bd 0cf4 51bd
000003a0: bc07 953d c750 93bd 1583 ec3a c426 353c
000003b0: 61a5 7dbd d0ad 8dbd e50c e2b9 c59a 62bd
000003c0: 3ba7 cfbc 56e8 c4bc 54eb d73c ca80 6dbb
000003d0: ef1c 2dbd 40f2 a3bd 4462 c8bc 831c 8dbb
000003e0: a5be 2ebb 793d a63c fe8e e2ba 3d95 2abc
000003f0: 1979 88bc 99d3 9f3b 0480 143d 140e 06bd
-0.091017 -0.023557441 0.026986465 -0.031925425 0.019076785 -0.008387508 -0.06891691 -0.0046569905
-0.004375856 0.004106502 -0.015414453 -0.058738515 0.046732422 0.0061318125 -0.0017303085 0.010689712
-0.013530555 -0.08764137 -0.024008073 -0.05392744 -0.07175246 -0.0020470237 -0.018857356 0.026628088
-0.008117401 -0.029441677 -0.021382201 -0.07831023 -0.05430357 -0.002023524 0.02417933 -0.006579151
-0.036467925 -0.046181373 -0.032954648 0.007938624 -0.05397089 -0.038962804 -0.07818706 -0.011031778
-0.04972371 -0.017292788 0.019809779 -0.020696482 -0.08317844 0.032350194 0.004546028 -0.090006545
-0.006301333 -0.041927904 -0.04107546 -0.07760575 -0.018641245 0.014092622 -0.049265146 -0.07428349
-0.035866767 0.038516793 0.00808846 -0.034739368 -0.029106742 -0.0545491 -0.0004884003 0.00019378147
-0.015480135 -0.11229592 -0.13175456 0.028100144 -0.05182556 0.020339122 -0.031108707 -0.059247598
-0.047375083 -0.06401974 -0.04774377 -0.041639984 -0.061140068 0.018420242 -0.02940569 -0.02042826
-0.041566078 -0.012501966 -0.0013409131 -0.031494338 0.022730375 0.027955944 0.029243447 0.017372472
-0.03519775 -0.091920726 -0.009771825 -0.09842661 0.024754576 0.024437362 -0.06981594 0.0026344506
-0.101775 -0.050288253 0.002511862 -0.012522304 0.010657589 0.031167546 -0.03628323 0.013972615
-0.034921877 -0.053474765 -0.084284574 0.030126689 -0.037584733 -0.05176198 0.016421156 -0.009861247
-0.009172328 0.012403658 0.02080928 0.008849576 -0.00055655424 -0.028255815 0.016287928 0.009044193
0.0025838509 -0.0427685 -0.01914798 -0.063669376 -0.0068065524 -0.08099025 0.03686404 0.0104885055
-0.0804577 -0.06506424 -0.02893652 0.019326165 -0.002352214 0.011724051 -0.05990167 -0.044957817
0.0055450806 -0.04351517 0.013423214 0.034357157 -0.022928635 0.004729464 -0.09271703 -0.0023724183
0.06616598 0.024521127 0.025237042 -0.044979163 -0.041033313 -0.029517567 -0.03730391 0.013536442
-0.07305852 -0.01442947 -0.05761845 -0.013057376 0.015960574 -0.08243578 -0.058208562 -0.07713838
-0.055243757 0.01932912 0.02127579 -0.0244061 -0.042974222 -0.02370314 0.018201094 -0.053181794
-0.04916034 -0.025806392 -0.024746463 -0.080996566 -0.043766845 -0.056388266 -0.06396192 0.030007327
0.0011393591 0.01788388 -0.052016225 -0.012272339 -0.026030187 -0.033784106 -0.061155517 -0.0643695
-0.063423924 -0.091501966 0.003738294 -0.0012322146 -0.0027747082 -0.054564036 0.004238113 -0.011176906
-0.012270611 0.019186975 0.021236047 0.009404166 -0.037594862 -0.014324595 -0.015053597 0.03140444
-0.0034098383 -0.06159699 -0.07245822 -0.04320719 0.008893779 -0.059730206 -0.04351195 -0.042569105
-0.050721828 0.03047338 -0.006694422 -0.024218434 -0.055814177 0.0030866251 0.052991536 -0.038545504
-0.07400891 -0.047207866 -0.01858567 -0.044558708 0.0062410743 -0.031109367 0.036420643 -0.07577403
-0.04447989 0.017711377 0.03547335 0.01857187 0.019127235 0.01067475 -0.043533936 -0.05125813
0.07276866 -0.071931414 0.0018044437 0.011056606 -0.061925296 -0.06917918 -0.00043115686 -0.05532338
-0.025348296 -0.024036568 0.02635733 -0.0036240094 -0.04226392 -0.0800519 -0.02446092 -0.0043063774
-0.0026663926 0.020292984 -0.0017285047 -0.010411558 -0.016659306 0.0048775193 0.036254898 -0.03272827

weight f4 [128, 256]
00000000: 9fea 313d ef34 febd 8c5c 603d d20f b0bd
00000010: bdc9 1fbd b7a1 2abe a7d7 613d cda0 78bd
00000020: 5e0a a6bc 7ffe d23c 8d48 323b 0a66 153c
00000030: d676 85bd b091 b03c 912b 233b 6e21 40bc
00000040: 35e7 afbd 57a9 98bd 6e4f 74bd 9a63 12bd
00000050: d67c ccbd 7868 173d 5ea0 b1bc 666a bdbc
00000060: ad23 123e fabc b9bd a1e7 c13c 3b64 77bc
00000070: 23f2 5abd 9018 a4bc 5388 67bb 0c82 2c3d
00000080: d625 b7bc 3331 da3c f23f 6e3d 6854 77bd
00000090: 4c0c dfbd b3fd d4bd 9076 e1bd d4e7 203d
000000a0: 8fe2 803d e1ae 013d aa6b 9fbb c072 0ebd
000000b0: 7c50 e2bd da5b ed3c 6628 a83d c9ce 34bd
000000c0: 65c7 923d 2011 dfbd c131 a33d 192e aabc
000000d0: 1268 ac3c 2336 bdbc 2e98 28bc 7150 c1bd
000000e0: a461 94bd 5699 d0bd e914 86bd 914c 01bd
000000f0: ebaa adbd e6bc 88bd d8a9 ea3c 7f32 4dbd
00000100: 7885 96bd 1a24 1f3d 88b1 143d af8c 753d
00000110: 473b 82bd e117 243c ad1b d4bd e400 05bc
00000120: 72d0 22be fd34 b33d d09a 0abe d355 1c3d
00000130: bac8 d63b af8d 893d bf48 9939 0fa8 bd3b
00000140: 7934 953b 1e78 393c d411 663d aa0f 9cbc
00000150: 3d8a 5dbd cf80 983c f195 793d 221b ac3c
00000160: 936f 59bd 6ba6 28bd 768a ff3c 7632 c23d
00000170: 6b0f 99bd 5517 9dbc 83a2 603b 0ca3 703d
00000180: 3db7 23bd f1c2 3d3d 16cd ff3b a0f9 143d
00000190: 9712 0d3c 003a c63c 1254 71bc 52fb 1c3d
000001a0: 980c b43c 66ea b1bd f8e6 023d f7f3 e4bd
000001b0: 3ff0 1cbd e8d1 e53c 65f7 6cbd 168e 74bd
000001c0: 5b40 55bd f317 693c 9d48 ba3d 2d4d 61bd
000001d0: fcfb 4b3d daee a93b 31ec e43d 3126 bb3c
000001e0: bc94 1abd 3cfb 24bd ca84 cbbd 44e2 13be
000001f0: 99d4 5a3d 7f13 8c3c 57d1 d3bc 3e1d 66bd
00000200: 121b ba3b df20 85bd 9e48 e2bb ce30 823d
00000210: 7096 6cbd d393 563d d45a abbd 49be 773d
00000220: d42b 64bd f1db b3bd bde0 21bd 168c 53bd
00000230: 5e0f 023c 67a4 19be cb2b 173d 2614 02bc
00000240: abb0 cdbc 4827 783d 72cd 0ebd 5002 893c
00000250: 5c3d 35bd 2958 2a3d bf32 c03d ad8d a5bd
00000260: c0c8 edbd 4e1c 5cbc 22d6 8b3b 67a1 8ebb
00000270: 5696 7abc 1e0c 533b 5881 b4bc e032 5abc
00000280: a84a acbd b074 1c3b 4056 123d d39e 0c3d
00000290: c63e 85bd 20a7 743c d0c9 893c cf2b 2bbc
000002a0: 208c 36bd 6eb7 d23d c57b 18be 8ede 223d
000002b0: 47f6 8d3c cccc 60bc 6d5b 96bb 6d01 cdbd
000002c0: d371 a0bd e16f e2bd fde0 f9bd 44d2 9b3c
000002d0: 5237 d9bd 265a f03d ba2b 6abd c5a1 b23c
000002e0: b45f af3b 2a90 e53b 308f b03c e952 0fbe
000002f0: a8f1 7b3d 5e68 6e3c e179 3dbd a3cb 0abc
00000300: cd86 d13d e8fc 8bbc 4040 413d 8f5a d23c
00000310: 7649 3abd 4a47 cdbc dccd 223c 782e 2dbd
00000320: bc7c c6bc caba 44bd 478a 9dbd 6bca 83bd
00000330: 0a15 a2bd 46c9 8d3d 8642 153b a147 83bd
00000340: 71dc 903d 586d a0bd b6cc 94bc ac96 383d
00000350: 9f8b dd3d 2e1e be3d e521 29bd 98fd a8bd
00000360: 10af d6bd 7fa5 ae3b 73fd 393d b202 abbd
00000370: e71b 82bc 7523 e73b a147 d63c 4cf5 4bbd
00000380: c0ff 443d f79c c2bc 02bb b13d 7c24 9bbc
00000390: 811c e1bc 951c 9a3d b24f c43c f7c9 8d3d
000003a0: f5f9 2dbe 9b2e 4f3d 6b08 fe3c d7ca 89bd
000003b0: 77dd af3a 2196 8abd 75e9 8e3d 55e7 95bd
000003c0: 011c 5a3d 3dc7 833c e99e 89bd 1fba a2bd
000003d0: af61 16be 65f3 c63c c0f4 90bd a39a 163c
000003e0: 4439 ab3c efa8 6b3a ccb7 833d aa55 82bd
000003f0: 74a5 87bc 4c48 5ebd 3bbf d8bc 2b7a 7ebd
0.043436643 -0.1241244 0.05477576 -0.085967675 -0.039010752 -0.16663252 0.055137303 -0.060700227
-0.020268615 0.025756119 0.0027203888 0.009118566 -0.06516807 0.021553844 0.0024897794 -0.01172672
-0.08589021 -0.07454174 -0.059646063 -0.03573952 -0.09984748 0.036964864 -0.021682914 -0.023122024
0.14271422 -0.090692475 0.02367002 -0.01509958 -0.053453576 -0.020031244 -0.0035329058 0.04211621
-0.022356909 0.026634788 0.05816645 -0.06038323 -0.10891017 -0.10399952 -0.11008942 0.03928359
0.062932126 0.03166092 -0.0048651295 -0.034777403 -0.110505074 0.028974462 0.082108304 -0.04414252
0.07166938 -0.10891938 0.07968474 -0.020773934 0.021045718 -0.023097103 -0.010290189 -0.09439171
-0.07245186 -0.101854965 -0.06546957 -0.03156716 -0.08479866 -0.066766545 0.028645441 -0.050096985
-0.07349676 0.03885279 0.03630212 0.05994862 -0.063589625 0.010015459 -0.10356841 -0.008117888
-0.15899828 0.08750341 -0.13535619 0.038167786 0.00655469 0.06716477 0.00029236634 0.0057878564
0.0045533744 0.011320142 0.056169346 -0.019050438 -0.054086912 0.018616108 0.06093401 0.021009032
-0.05308492 -0.041174334 0.031193953 0.09482281 -0.07473644 -0.019176165 0.0034276552 0.058749244
-0.03996967 0.04632849 0.0078064306 0.036370873 0.008610389 0.024197578 -0.014729517 0.038325615
0.021978661 -0.08687286 0.03195855 -0.11179345 -0.038315054 0.028054193 -0.05785312 -0.059705816
-0.052063327 0.014226901 0.09095881 -0.05500524 0.049800858 0.005185944 0.111778624 0.02284536
-0.0377395 -0.04027866 -0.09937437 -0.14441782 0.053425405 0.01709914 -0.025856657 -0.05618023
0.0056794966 -0.0650041 -0.0069056293 0.06356965 -0.057760656 0.05238707 -0.083669335 0.060484204
-0.05570586 -0.08782185 -0.039520968 -0.05164727 0.007938234 -0.15004121 0.036907 -0.007939374
-0.025108656 0.060584337 -0.034863897 0.016724735 -0.04424797 0.041587982 0.09384679 -0.08083663
-0.11610556 -0.013434483 0.00426747 -0.0043527368 -0.015294632 0.0032203267 -0.022034332 -0.013317794
-0.08412677 0.0023873262 0.035726786 0.034331154 -0.06506114 0.014932424 0.016819865 -0.0104474565
-0.044567227 0.10288893 -0.14890964 0.039763026 0.017329348 -0.013720702 -0.0045885355 -0.100100376
-0.0783421 -0.110564955 -0.12201116 0.01902116 -0.10606255 0.117359444 -0.057170607 0.021805653
0.005351985 0.007005711 0.021552652 -0.13996471 0.06150976 0.01455125 -0.04625881 -0.008471402
0.10230789 -0.017088369 0.047180414 0.025677947 -0.045480214 -0.025058407 0.009936776 -0.042280644
-0.0242294 -0.0480297 -0.0769239 -0.064350925 -0.07914169 0.069231555 0.0022775247 -0.064101465
0.07073296 -0.07833356 -0.01816402 0.045065567 0.10817646 0.092831 -0.04129209 -0.08251494
-0.10482609 0.0053297873 0.045407724 -0.083501235 -0.015882445 0.0070537874 0.026157202 -0.04979448
0.048095465 -0.023756487 0.08678247 -0.018938296 -0.027479412 0.07524983 0.023963783 0.06923287
-0.16989882 0.050581556 0.031009873 -0.06728142 0.0013417442 -0.06766916 0.06978122 -0.07319514
0.053249363 0.016086215 -0.06719763 -0.07945656 -0.14685701 0.024285981 -0.07077932 0.009192142
0.02090133 0.00089897116 0.06431541 -0.063639954 -0.016558386 -0.054268166 -0.026458373 -0.062128227

bias f4 [128]
00000000: d12a edbc 6b1f 89bd 49cc f03c a71b 2a3a
00000010: 36b6 cabc e3d2 4f3d cdf4 f53a dda6 6e3c
00000020: 064b 4ebd 4aaf a0bd f6ab 87bb df47 773c
00000030: 3edc c2bd c8ef a73c 588b 5c3d fc23 dfbd
00000040: 0dd3 c7bc fa49 08be aaae b4bd 2811 e8bc
00000050: a850 26bd 898e b03c 5c3c 51bd 83a6 59bd
00000060: 6fef 33bc bb36 26bd c07c 043c a0d8 4dbc
00000070: 5099 8d3d 16f3 36bc 7edc 843b 149f 8dbd
00000080: abc8 edbc 3497 8abd a228 84bc 41f3 79bd
00000090: 47ed b0bd 10ed f13c 6745 c2bc 56fa 12bc
000000a0: bf08 153c ae65 debd 1550 3abd d717 e7bc
000000b0: 1f8c 0a3d 9a37 5abd 3e24 fc3c 19c5 dcbd
000000c0: e36a 3b3d adff 98bd 260e 813d 6b40 abbd
000000d0: b9d0 29bd 234f 3f3d 2fa6 e9bc 3b54 24bd
000000e0: 695b a1bd 09e2 a0bd 1388 47bd 7355 48bd
000000f0: 87e8 5c3d b763 e6bd bd66 fd3c 00fd 66bc
00000100: 88e0 083c 00d8 423d defd 6b3d 3af1 713d
00000110: 5a0a 05be 32b6 833d 2fd1 81bc b77d 10bc
00000120: 93e3 93bb 3b2f d3bc 9bde b6bc ec68 333d
00000130: 4299 c1bd f854 87bd d6fe 24be 87aa 0f3d
00000140: 99fe 3abd 19e7 fcba cc93 b93c bed2 28bd
00000150: ddd6 f4b8 a654 9bbd 1525 6b3c 5287 2cbd
00000160: 2103 86bd 1f5b 033d 09e8 15bc 3f4d e9bd
00000170: 1edc 81bc e561 023d d0aa 2ebc 8dbf 1d3d
00000180: 3367 60bd 8be4 103d c4f6 2bbb 55c1 82bb
00000190: a368 b43c b035 65bd e660 84bc ceab 95bd
000001a0: 3bb2 11bd 6bce 393d d787 dbbc b9aa e2bc
000001b0: 4290 423d 716e 093d 439e e6bc d94b 99bc
000001c0: 4aff 94bd 86f7 60bd 7c45 a13b 4b5d f7bc
000001d0: 2436 acbd 39e2 1e3d 577e 97bd bae3 b33c
000001e0: 013b cf3c 79c5 203b 5eaa 20bd c900 fc3c
000001f0: b7bd 983a e071 abbd 0f12 313d cac8 12bd
-0.02895108 -0.066954456 0.029394286 0.0006489106 -0.024745088 0.050738227 0.0018764973 0.0145661505
-0.050364517 -0.07845934 -0.0041403724 0.015092819 -0.09514664 0.020500079 0.053843826 -0.10895535
-0.024392629 -0.1330947 -0.08822377 -0.028328493 -0.040604264 0.021552341 -0.051082954 -0.053137314
-0.010982378 -0.04057954 0.008086383 -0.012563854 0.06914008 -0.011166355 0.004054605 -0.06915107
-0.02902635 -0.06767121 -0.016132656 -0.061023 -0.08639007 0.029531986 -0.023714734 -0.008970818
0.0090963235 -0.108592376 -0.04548653 -0.02820961 0.033825036 -0.053275682 0.030779 -0.10779781
0.045756232 -0.07470641 0.06301527 -0.08361896 -0.04145882 0.04670633 -0.028521625 -0.04011939
-0.07878763 -0.07855613 -0.048713755 -0.048909616 0.053932693 -0.11249488 0.030932778 -0.014098406
0.008354314 0.047569275 0.057615153 0.059067942 -0.1299223 0.064312354 -0.015846817 -0.008819035
-0.004513213 -0.025779357 -0.022322943 0.043801233 -0.0945306 -0.066080034 -0.16112837 0.035074737
-0.04565296 -0.0019294947 0.022653483 -0.041216604 -0.00011674848 -0.07584505 0.014352103 -0.04212124
-0.065435655 0.03206932 -0.00914956 -0.11391687 -0.01585203 0.03183164 -0.010660842 0.038512755
-0.05478592 0.035374206 -0.0026239613 -0.003990332 0.02202255 -0.055959404 -0.016159486 -0.0730816
-0.035570364 0.04536287 -0.026798172 -0.027669298 0.047500856 0.03355259 -0.028151637 -0.018712925
-0.07275255 -0.054923557 0.0049216133 -0.030195853 -0.08408764 0.03878996 -0.07397144 0.021959174
0.02529669 0.0024531765 -0.039224975 0.030762093 0.0011653219 -0.08371329 0.043230113 -0.03583602

weight f4 [6, 128]
00000000: 22d1 1ebe e21a 9ebc 5189 1cbd 7348 aa3d
00000010: 3c53 9a3d a0f3 2dbd 9791 cdbb deac 01be
00000020: f608 763d d91f 30bb ad39 1abd dbce e23d
00000030: 2763 7ebd 3768 903d c679 62bd 4ca9 bbbc
00000040: f0d6 9cbd a58d 6fbd d134 3ebc b771 bb3c
00000050: e162 0b3d 9d57 bb3c aaaa deba 5d21 133e
00000060: d0fc 97bd 3317 0c3d dca9 9ebd 7977 153d
00000070: 5492 f03c d28d e7bd 2f98 bfbd 6e5b b2bb
00000080: 10b0 66bd ab51 74bd 927e 88bd a7a0 47bd
00000090: 859d 1fbc 1806 72bd af4f 9c3c 9f37 3fbd
000000a0: 0e25 9cbd f3f1 dcb9 448b 05bd d5c4 92bd
000000b0: e992 bc3c 2e14 eb3c 5eea f6bb 08bb 5fbc
000000c0: 50cb 3b3d 6cfd 363d 2be0 e9bc e977 e83d
000000d0: 665d 243d 396b d63d 3ef6 203e 0cf2 1e3c
000000e0: 5c6c c63c 5de8 093e cd2e eabd 05c9 a53a
000000f0: a508 3dbd fe7b 3a3d bf82 0b3d b58c 113d
00000100: 8c4e d63d 69bb b6bd bdf8 b93c 3b94 bcbc
00000110: 9ae2 bd3c ce95 afbd 7d93 81bd 29ab 41bd
00000120: 7da7 0ebc 0d0c dcbd 7ecb 1a3d 8ca5 90bd
00000130: dd1d 5fbd 038a 27bd 0228 083d d3c4 5cbd
00000140: e68c fa3b 14d0 543d a221 413c 1ab4 f5bb
00000150: 5da2 85bc 836d a5bd 201f ef3c 4002 363d
00000160: 433d 8c3d b511 7dba 2c61 78bc 8964 643d
00000170: cf7f 233d ecad 58bb e3fb 03bc b0f7 a1bd
00000180: c49e ff3c b281 133c 81dd 3c3b 4d1e 373c
00000190: 4d41 7c3d 396e d9bc 8408 3ebd 6040 843d
000001a0: 0c42 a53d 652e 91bb c2ff a3bd 36a2 843b
000001b0: 6e59 65bd ea5f a03d 3d7d 9fbd ce08 2e3c
000001c0: e523 87bb 86c0 7f3c ee3d 8fbd 9932 13bd
000001d0: b37f 5b3d 0145 d13d be45 efbc 803b 0a3d
000001e0: 6172 93bd 59ad fc3c cb06 2b3d d4bf e43c
000001f0: cdef be3d cfc5 cd3d 7179 e6bd 5b34 9f3b
00000200: 6448 9cbc 5a62 83bb ebb0 7fbd 57e6 8e3d
00000210: e133 5fbd 1073 b9bc 9a68 983d c0b3 b2bc
00000220: b8a4 d4bb b336 9fbd c88e bf3c fc28 f03c
00000230: f31e 31bd 0d5b 68bd 0948 e73c befd 593c
00000240: a15d 32bd d954 3fbd c75a 29bc 99ac b3bd
00000250: 6f83 fc3d ca93 523d 3902 6b3d 83b1 c13c
00000260: 68b0 78bd bda7 503d da69 163d 8e0e a33d
00000270: 1c92 8ebd fd45 0abd d566 d93c 4753 be3b
00000280: c992 283e 42f9 23bd b2ca 9a3c 2d99 f4bd
00000290: 280b 003e b7af 0dbd 5462 4fbd 97ee d7bd
000002a0: 9b05 3f3c 17eb 0abd f1a6 b0bd dce6 43bd
000002b0: 7e3e 943d 2088 6fbd b51e 3cbb ca77 02bc
000002c0: 6b0e db3c 33d6 ef3b e999 c93d 0138 03bd
000002d0: f388 87bd ce9c f1ba 7194 3e3d a4e9 193d
000002e0: 4162 013d f613 ac3c be5d aabc fbfb ef3c
000002f0: eb4b d73d 981e 1f3d 0422 6dbc 2684 c43d
00000300: a068 dabb a2b6 133d 745c 923c 9df5 723a
00000310: 87a8 7ebd c340 5fbd 2373 0bbd e68f 18be
00000320: a338 983d a635 dabd 057d f5bc cc01 c33d
00000330: 41f4 0ebc 7324 1bbd ab90 0abc bdc0 5b3d
00000340: fa6c 2e3d 90b9 09be 0e7e 953b 6135 54bc
00000350: a929 89bc 93ab ab3d b903 b33d 537b d1bc
00000360: 523b dd3d 9723 0a3d 224d a23c 9bd6 243d
00000370: f7c5 82bc bad6 853d 0ceb f4bd f3a1 cd3c
00000380: 819d 063e 92c0 c8bc afb9 4b3d 7ac6 d53c
00000390: 0b6c bfbd 83a2 c4bb 8856 6bbd faa5 abbd
000003a0: 1994 86bd 28a1 27ba 9666 e03c 2ad9 2cbc
000003b0: 046d d1bb 7b3f 7f3d 5846 77bd 2a4b e9bd
000003c0: e9c6 713c 2b4b 0ebd abe0 cd3d 248a 1f3d
000003d0: f2b9 d5bc 66d5 85ba bc79 4cbd 2d35 4cbd
000003e0: 0236 8cbd f24f 4b3d a706 1f3d c90d 53bd
000003f0: 7aeb 91bd 82ee 9a3b cebb 47bc 7edb 4c3d
-0.15509465 -0.019299928 -0.038216893 0.083146 0.07535407 -0.042468667 -0.006273459 -0.126636
0.06006714 -0.0026874451 -0.03765266 0.11074611 -0.062106278 0.070511274 -0.055291913 -0.022907875
-0.076581836 -0.058484692 -0.011609272 0.022881372 0.034029845 0.022868926 -0.0016988118 0.14368196
-0.07421267 0.034201812 -0.07747242 0.03649089 0.02936665 -0.11306347 -0.093551986 -0.005443028
-0.05632025 -0.059648197 -0.06664766 -0.048737194 -0.009742145 -0.059087843 0.019080965 -0.046683904
-0.07624255 -0.00042141936 -0.032603517 -0.07166449 0.023019271 0.028696146 -0.007535263 -0.013655432
0.04584819 0.044675276 -0.028549274 0.11350996 0.040128134 0.1046967 0.15718934 0.009701263
0.024221592 0.13467546 -0.11434708 0.001264841 -0.046150822 0.045528404 0.034060236 0.03553458
0.104642004 -0.089224644 0.022701615 -0.0230199 0.023179341 -0.08573495 -0.06326959 -0.04728237
-0.0087069245 -0.10744486 0.03779172 -0.070628256 -0.05447184 -0.040903103 0.03324128 -0.053898644
0.007646191 0.05195625 0.011787804 -0.0074982764 -0.016312772 -0.08077528 0.029189646 0.04443574
0.06847622 -0.00096538226 -0.015159886 0.05575994 0.03991681 -0.003306265 -0.00805566 -0.07908571
0.031203635 0.00900309 0.002881855 0.011176658 0.061585713 -0.026541816 -0.04639484 0.06457591
0.08069238 -0.0044305795 -0.08007766 0.0040476574 -0.05599349 0.07830794 -0.07787559 0.010622216
-0.004124152 0.015609866 -0.06994234 -0.035936926 0.05358858 0.102182396 -0.02920806 0.03374815
-0.071995504 0.030844377 0.041754525 0.027923502 0.09323082 0.100474946 -0.11253632 0.004858536
-0.019077487 -0.004009527 -0.06242458 0.069775276 -0.054492835 -0.022637874 0.07441826 -0.021814227
-0.0064893626 -0.07774105 0.023383513 0.029316418 -0.043242406 -0.056727458 0.028232591 0.013305126
-0.043546323 -0.046711776 -0.010336584 -0.08773155 0.123297565 0.051410474 0.057375167 0.023644214
-0.06071511 0.050941218 0.03672204 0.079617605 -0.06961462 -0.033758152 0.026538292 0.0058082673
0.16462244 -0.040032633 0.01889548 -0.119432785 0.12504256 -0.034591403 -0.050630882 -0.10543554
0.011659051 -0.033915605 -0.086255915 -0.047827587 0.07238482 -0.05847943 -0.0028704826 -0.00796313
0.026740273 0.0073192357 0.09843809 -0.03203583 -0.06617918 -0.0018433572 0.046528284 0.037576333
0.031587843 0.021005612 -0.020796653 0.029294958 0.10512527 0.038847536 -0.014473442 0.09595518
-0.0066653043 0.036062844 0.01786635 0.00092681666 -0.06217244 -0.05450512 -0.03404535 -0.14898643
0.074326776 -0.10654764 -0.02996684 0.09521827 -0.008725227 -0.037876558 -0.008457343 0.053650606
0.042584397 -0.13449693 0.004562146 -0.01295218 -0.016743498 0.083823346 0.087409444 -0.0255715
0.1080233 0.033725347 0.01981217 0.040243726 -0.015963538 0.065350965 -0.11958894 0.025101637
0.1314602 -0.024505887 0.04973763 0.026095618 -0.093467794 -0.006000818 -0.05745557 -0.08381267
-0.06571216 -0.00063945586 0.027392667 -0.010549823 -0.0063911695 0.0623164 -0.06036982 -0.113912895
0.0147568965 -0.034739655 0.10052618 0.0389501 -0.026089642 -0.0010210692 -0.049920782 -0.0498554
-0.06846239 0.04963679 0.038824704 -0.05152682 -0.07124992 0.0047281394 -0.012190772 0.05001401

bias f4 [6]
00000000: 9aa7 063b 4b0d d03d f058 08bc 4d10 d5bb
00000010: 2304 8c3d 266a 8dbc
0.0020546676 0.101587854 -0.008321986 -0.0065021873 0.068367265 -0.01726253
